algorithms/qml/hybrid_qnn/trained_model.pth (torch, 2626 bytes, 4 tensors)

linear_1.weight f4 [4, 10]
0	0x3e6ba7d9	0.23013248
1	0x3da25b4c	0.0792757
2	0xbe42cf01	-0.19024278
3	0x3e9d43c9	0.30715778
4	0x3e982a38	0.2971971
5	0x3dd47044	0.103729755
6	0x3d9bd88a	0.07609661
7	0x3eab5392	0.33462197
8	0xbc9a6db7	-0.018851144
9	0xbe08d68d	-0.13363095
10	0x3e5d04ce	0.21583864
11	0x3e910592	0.28324562
12	0xbe5717cb	-0.2100517
13	0xbe12182c	-0.14267033
14	0x3e50edf0	0.20403266
15	0xbe419445	-0.18904217
16	0xbe8166b4	-0.2527367
17	0x3e5ddb30	0.21665645
18	0x3e9f3a00	0.31098938
19	0xbe81a5f1	-0.25321916
20	0xbe1df37b	-0.15424912
21	0x3e9aa583	0.302044
22	0xbd523d6e	-0.051328115
23	0x3e878cd4	0.2647463
24	0x3e9fcf48	0.3121283
25	0xbce1d22b	-0.027566036
26	0x3e8246ee	0.2544474
27	0x3e251fa5	0.16125353
28	0xbe02cbdf	-0.12773083
29	0x3e94dfd7	0.29077026
30	0x3de62580	0.11237621
31	0xbcc45a6e	-0.023968901
32	0x3d1fcafa	0.039011933
33	0xbce572b9	-0.028008806
34	0xbddc0d50	-0.10744727
35	0xbe198d7c	-0.14995378
36	0x3e9772a9	0.29579666
37	0x3e139dee	0.14415714
38	0x3e68dd14	0.22740585
39	0x3c482516	0.012215873

linear_1.bias f4 [4]
0	0xbb0baed4	-0.0021313922
1	0x3e7512f7	0.23933016
2	0xbe6b2cf6	-0.2296637
3	0xbdd427cf	-0.103591554

linear_2.weight f4 [1, 2]
0	0x3e87ecc1	0.26547816
1	0x3f662d40	0.89912796

qlayer.weight f4 [3]
0	0x3cc845b4	0.0244473
1	0x3eed15e1	0.46305755
2	0x3f132251	0.5747424
